…
torch/hub/checkpoints/resnet18-f37072fd.pth\n100%|██████████| 44.7M/44.7M [00:00<00:00, 162MB/s]\n","output_type":"stream"},{"name":"stdout","text":"==========================================================================================\nLayer (type:depth-idx)                   Output Shape              Param #\n==========================================================================================\n├─Conv2d: 1-1                            [-1, 64, 112, 112]        (9,408)\n├─BatchNorm2d: 1-2                       [-1, 64, 112, 112]        (128)\n├─ReLU: 1-3                              [-1, 64, 112, 112]        --\n├─MaxPool2d: 1-4                         [-1, 64, 56, 56]          --\n├─Sequential: 1-5                        [-1, 64, 56, 56]          --\n|    └─BasicBlock: 2-1                   [-1, 64, 56, 56]          --\n|    |    └─Conv2d: 3-1                  [-1, 64, 56, 56]          (36,864)\n|    |    └─BatchNorm2d: 3-2             [-1, 64, 56, 56]          (128)\n|    |    └─ReLU: 3-3                    [-1, 64, 56, 56]          --\n|    |    └─Conv2d: 3-4                  [-1, 64, 56, 56]          (36,864)\n|    |    └─BatchNorm2d: 3-5             [-1, 64, 56, 56]          (128)\n|    |    └─ReLU: 3-6                    [-1, 64, 56, 56]          --\n|    └─BasicBlock: 2-2                   [-1, 64, 56, 56]          --\n|    |    └─Conv2d: 3-7                  [-1, 64, 56, 56]          (36,864)\n|    |    └─BatchNorm2d: 3-8             [-1, 64, 56, 56]          (128)\n|    |    └─ReLU: 3-9                    [-1, 64, 56, 56]          --\n|    |    └─Conv2d: 3-10                 [-1, 64, 56, 56]          (36,864)\n|    |    └─BatchNorm2d: 3-11            [-1, 64, 56, 56]          (128)\n|    |    └─ReLU: 3-12                   [-1, 64, 56, 56]          --\n├─Sequential: 1-6                        [-1, 128, 28, 28]         --\n|    └─BasicBlock: 2-3                   [-1, 128, 28, 28]         --\n|    |    └─Conv2d: 3-13                 [-1, 128, 28, 28]         (73,728)\n|    |    └─BatchNorm2d: 3-14            [-1, 128, 28, 28]         (256)\n|    |    └─ReLU: 3-15                   [-1, 128, 28, 28]         --\n|    |    └─Conv2d: 3-16                 [-1, 128, 28, 28]         (147,456)\n|    |    └─BatchNorm2d: 3-17            [-1, 128, 28, 28]         (256)\n|    |    └─Sequential: 3-18             [-1, 128, 28, 28]         (8,448)\n|    |    └─ReLU: 3-19                   [-1, 128, 28, 28]         --\n|    └─BasicBlock: 2-4                   [-1, 128, 28, 28]         --\n|    |    └─Conv2d: 3-20                 [-1, 128, 28, 28]         (147,456)\n|    |    └─BatchNorm2d: 3-21            [-1, 128, 28, 28]         (256)\n|    |    └─ReLU: 3-22                   [-1, 128, 28, 28]         --\n|    |    └─Conv2d: 3-23                 [-1, 128, 28, 28]         (147,456)\n|    |    └─BatchNorm2d: 3-24            [-1, 128, 28, 28]         (256)\n|    |    └─ReLU: 3-25                   [-1, 128, 28, 28]         --\n├─Sequential: 1-7                        [-1, 256, 14, 14]         --\n|    └─BasicBlock: 2-5                   [-1, 256, 14, 14]         --\n|    |    └─Conv2d: 3-26                 [-1, 256, 14, 14]         (294,912)\n|    |    └─BatchNorm2d: 3-27            [-1, 256, 14, 14]         (512)\n|    |    └─ReLU: 3-28                   [-1, 256, 14, 14]         --\n|    |    └─Conv2d: 3-29                 [-1, 256, 14, 14]         (589,824)\n|    |    └─BatchNorm2d: 3-30            [-1, 256, 14, 14]         (512)\n|    |    └─Sequential: 3-31             [-1, 256, 14, 14]         (33,280)\n|    |    └─ReLU: 3-32                   [-1, 256, 14, 14]         --\n|    └─BasicBlock: 2-6                   [-1, 256, 14, 14]         --\n|    |    └─Conv2d: 3-33                 [-1, 256, 14, 14]         (589,824)\n|    |    └─BatchNorm2d: 3-34            [-1, 256, 14, 14]         (512)\n|    |    └─ReLU: 3-35                   [-1, 256, 14, 14]         --\n|    |    └─Conv2d: 3-36                 [-1, 256, 14, 14]         (589,824)\n|    |    └─BatchNorm2d: 3-37            [-1, 256, 14, 14]         (512)\n|    |    └─ReLU: 3-38                   [-1, 256, 14, 14]         --\n├─Sequential: 1-8                        [-1, 512, 7, 7]           --\n|    └─BasicBlock: 2-7                   [-1, 512, 7, 7]           --\n|    |    └─Conv2d: 3-39                 [-1, 512, 7, 7]           (1,179,648)\n|    |    └─BatchNorm2d: 3-40            [-1, 512, 7, 7]           (1,024)\n|    |    └─ReLU: 3-41                   [-1, 512, 7, 7]           --\n|    |    └─Conv2d: 3-42                 [-1, 512, 7, 7]           (2,359,296)\n|    |    └─BatchNorm2d: 3-43            [-1, 512, 7, 7]           (1,024)\n|    |    └─Sequential: 3-44             [-1, 512, 7, 7]           (132,096)\n|    |    └─ReLU: 3-45                   [-1, 512, 7, 7]           --\n|    └─BasicBlock: 2-8                   [-1, 512, 7, 7]           --\n|    |    └─Conv2d: 3-46                 [-1, 512, 7, 7]           (2,359,296)\n|    |    └─BatchNorm2d: 3-47            [-1, 512, 7, 7]           (1,024)\n|    |    └─ReLU: 3-48                   [-1, 512, 7, 7]           --\n|    |    └─Conv2d: 3-49                 [-1, 512, 7, 7]           (2,359,296)\n|    |    └─BatchNorm2d: 3-50            [-1, 512, 7, 7]           (1,024)\n|    |    └─ReLU: 3-51                   [-1, 512, 7, 7]           --\n├─AdaptiveAvgPool2d: 1-9                 [-1, 512, 1, 1]           --\n├─Sequential: 1-10                       [-1, 1]                   --\n|    └─Flatten: 2-9                      [-1, 512]                 --\n|    └─Linear: 2-10                      [-1, 128]                 65,664\n|    └─ReLU: 2-11                        [-1, 128]                 --\n|    └─Dropout: 2-12                     [-1, 128]                 --\n|    └─Linear: 2-13                      [-1, 1]                   129\n|    └─Sigmoid: 2-14                     [-1, 1]                   --\n==========================================================================================\nTotal params: 11,242,305\nTrainable params: 65,793\nNon-trainable params: 11,176,512\nTotal mult-adds (G): 1.84\n==========================================================================================\nInput size (MB): 0.57\nForward/backward pass size (MB): 37.90\nParams size (MB): 42.89\nEstimated Tot
…
